TSLA_lstm_model.pth (torch, 206149 bytes, 9 tensors)

lstm.weight_ih_l0 f4 [256, 1]
-0.024976365 0.054070618 0.0071012573 -0.011379821 0.05411101 -0.024541589 0.017166905 0.21163258
0.008255714 0.10132037 0.09965551 0.014113256 0.12794498 0.14517578 0.2241428 0.10494631
0.040579975 0.12138464 0.15757568 0.15027077 -0.070859745 0.025867565 0.09245332 0.06984753
-0.091573045 -0.025517847 0.08278713 0.05770841 -0.035503797 0.0011968304 -0.078010276 0.12205091
0.15913223 -0.032702133 0.0052676443 0.1650685 -0.0075695147 -0.083701566 0.056571133 0.21899094
-0.04234438 0.67321694 0.03286287 0.15983148 0.027785206 0.07632353 -0.04562716 0.062982604
0.14769298 0.18773039 0.10937004 -0.079900086 0.15631919 0.07462881 0.055975772 -0.09688269
0.095093444 0.011380181 0.18213105 -0.028535852 0.17340413 0.066111274 -0.018949853 0.020822609
-0.132851 0.044257455 0.0059729433 0.0380882 0.01795793 0.08957739 0.004827471 0.16202337
0.09247839 0.13235676 0.12266172 -0.10181635 0.19337375 0.16482852 0.15566067 0.0762431
-0.029603846 -0.059080526 -0.014423328 -0.04930859 0.013515897 -0.030279452 0.005475335 0.1584006
-0.3170862 -0.04930631 0.16810088 0.02036725 -0.14466082 -0.026161067 0.1637094 0.14397773
-0.006276263 0.19339494 0.07693397 0.1857497 0.17751272 -0.14061432 0.024068648 0.12761422
-0.15460503 0.07554435 -0.07262383 -0.009355444 -0.021795372 0.05748663 0.023101736 0.09821629
0.16909428 0.019793201 0.15898724 -0.08238123 0.044457525 -0.21299198 -0.017035149 0.098435104
-0.006298355 -0.044119313 0.17810342 -0.033610765 0.08962372 0.017970823 0.15774758 0.18303882
0.09208958 -0.059435885 0.110670224 0.17897637 -0.07290901 -0.17542101 0.21674915 0.22343147
-0.0700186 0.21617626 -0.058928914 0.16650012 0.15970536 0.13497847 0.20859067 0.04071921
0.10052452 0.017449228 -0.2098316 0.1869358 0.11930088 0.047383036 0.028017435 0.07440719
-0.2039745 0.09772897 0.002731516 -0.0035403026 0.075173326 0.055050958 -0.011226228 0.07733222
0.14057411 -0.08711851 -0.023170572 0.16865443 -0.105586596 0.1174875 -0.024484266 -0.060112398
0.16891934 0.38780388 0.03758756 -0.22212829 0.008660394 -0.14369343 -0.17247589 0.012098439
0.045388915 0.14755043 -0.10474255 -0.026235955 0.048894603 -0.2329807 -0.19221526 -0.11572008
0.069963224 -0.008338193 0.18996513 -0.14420244 -0.106120646 -0.035291642 -0.0044783643 0.1009426
-0.05285951 0.14669189 0.11157958 -0.0024258108 0.08157329 0.043143243 0.024853218 0.022585109
-0.01942749 -0.008690637 0.07404995 -0.110787705 0.19152214 0.13848723 0.2336792 0.12742516
-0.09519569 0.14626256 0.2147752 0.06963603 0.08409449 -0.08916812 0.05769261 0.20471242
-0.086530276 0.19286947 0.13910079 0.17022738 -0.09020061 -0.07316483 0.01996749 0.08271054
0.015740108 0.06844323 0.13692802 0.05055115 0.16892554 0.12439323 0.07205099 0.12035115
-0.029335001 0.64728415 0.00440534 0.07561234 0.020958412 0.054821335 0.105960004 0.13782829
0.17548801 -0.017502725 0.14218783 0.10320878 0.15252636 0.08571794 0.034321047 -0.0052070054
0.2173351 0.14135137 0.28246742 0.08142514 0.15199019 0.1707119 0.12924945 0.16857287
00000000: 3c9b ccbc 2779 5d3d aab1 e83b 6e72 3abc
00000010: 82a3 5d3d 710b c9bc 9ca1 8c3c 36b6 583e
00000020: f942 073c 0e81 cf3d 3018 cc3d 493b 673c
00000030: 0204 033e f6a8 143e b185 653e 17ee d63d
00000040: 3037 263d 8398 f83d 855b 213e 95e0 193e
00000050: ea1e 91bd 37e8 d33c 2b58 bd3d 390c 8f3d
00000060: a68a bbbd ce0a d1bc 4c8c a93d a75f 6c3d
00000070: 6e6c 11bd f7de 9c3a dac3 9fbd d4f5 f93d
00000080: 8ff3 223e acf2 05bd 349c ac3b b807 293e
00000090: b109 f8bb ba6b abbd 22b7 673d 293f 603e
000000a0: 4d71 2dbd f257 2c3f 379b 063d ddaa 233e
000000b0: cd9d e33c 834f 9c3d 8ce3 3abd 06fd 803d
000000c0: d43c 173e 653c 403e 66fd df3d a8a2 a3bd
000000d0: 2312 203e fdd6 983d da46 653d 6f6a c6bd
000000e0: 5ac0 c23d f073 3a3c 9080 3a3e 05c4 e9bc
000000f0: da90 313e 5965 873d b93c 9bbc 2d94 aa3c
00000100: 180a 08be 4e47 353d aeb8 c33b 5f02 1c3d
00000110: 821c 933c 5a74 b73d c32f 9e3b 74e9 253e
00000120: 4f65 bd3d 8888 073e 1136 fb3d 1785 d0bd
00000130: c503 463e cfc8 283e 8365 1f3e 5825 9c3d
00000140: c483 f2bc 6cfe 71bd d34f 6cbc cef7 49bd
00000150: c871 5d3c 9d0c f8bc 706a b33b c433 223e
00000160: 1f59 a2be 6af5 49bd a322 2c3e 38d9 a63c
00000170: f721 14be bc4f d6bc 70a3 273e e66e 133e
00000180: 1ca9 cdbb 5309 463e 8f8f 9d3d 2b35 3e3e
00000190: e5c5 353e 33fd 0fbe 9d2b c53c 4dad 023e
000001a0: c850 1ebe ffb6 9a3d cdbb 94bd 9447 19bc
000001b0: 358c b2bc 1a77 6b3d da3f bd3c 9f25 c93d
000001c0: 0d27 2d3e 5a25 a23c 8dcd 223e 7eb7 a8bd
000001d0: 1819 363d 921a 5abe 4c8d 8bbc 5898 c93d
000001e0: 6e62 cebb 74b6 34bd be60 363e 71ab 09bd
000001f0: a48c b73d 8c37 933c 9588 213e 876e 3b3e
00000200: 7699 bc3d 0b73 73bd 12a7 e23d 9545 373e
00000210: 5251 95bd 91a1 33be 7df3 5d3e 38cb 643e
00000220: e965 8fbd 4f5d 5d3e 725f 71bd 027f 2a3e
00000230: cd89 233e cc37 0a3e cb98 553e 30c9 263d
00000240: cddf cd3d aff1 8e3c 18de 56be 196c 3f3e
00000250: 0554 f43d b714 423d d284 e53c cc62 983d
00000260: b1de 50be 2026 c83d 3c03 333b 6c04 68bb
00000270: 79f4 993d 1d7d 613d 37ee 37bc 5b60 9e3d
00000280: a9f2 0f3e 306b b2bd 36d0 bdbc bfb3 2c3e
00000290: c93d d8bd 499d f03d 3a93 c8bc 6b38 76bd
000002a0: 31f9 2c3e 3b8e c63e 6af5 193d 9975 63be
000002b0: 53e4 0d3c 5f24 13be 859d 30be 8838 463c
000002c0: bae9 393d 7617 173e 4383 d6bd c9ec d6bc
000002d0: b545 483d 7e92 6ebe 14d4 44be a6fe ecbd
000002e0: e148 8f3d eb9c 08bc 3886 423e cea9 13be
000002f0: c855 d9bd f88d 10bd 3ebf 92bb feba ce3d
00000300: 3783 58bd 6636 163e d683 e43d 5afa 1ebb
00000310: e60f a73d f8b6 303d fa98 cb3c 6804 b93c
00000320: 6626 9fbc 2c63 0ebc 80a7 973d aae4 e2bd
00000330: 611e 443e 99cf 0d3e 9a49 6f3e be7b 023e
00000340: f5f5 c2bd dac5 153e 08ee 5b3e 569d 8e3d
00000350: bb39 ac3d c69d b6bd 164f 6c3d 22a0 513e
00000360: c936 b1bd 937f 453e 7070 0e3e 1650 2e3e
00000370: 19bb b8bd 71d7 95bd dd92 a33c 2564 a93d
00000380: 66f1 803c f72b 8c3d dc36 0c3e b90e 4f3d
00000390: d1fa 2c3e e1c1 fe3d 788f 933d aa7a f63d
000003a0: f54f f0bc 6ab4 253f ac5a 903b a4da 9a3d
000003b0: fab0 ab3c 568c 603d 8f01 d93d dc22 0d3e
000003c0: 21b3 333e e061 8fbc b099 113e 205f d33d
000003d0: df2f 1c3e e38c af3d 3a94 0c3d 879f aabb
000003e0: 188d 5e3e 6abe 103e 929f 903e 39c2 a63d
000003f0: 51a3 1b3e 1acf 2e3e f859 043e 5e9e 2c3e

lstm.weight_hh_l0 f4 [256, 64]
-0.019233918 -0.022662323 -0.16572571 0.020616628 -0.0034617484 -0.022470037 0.010776062 0.053404618
0.08048905 -0.14538853 -0.027590327 -0.23741452 -0.07509417 0.021435186 0.00923476 -0.031085676
0.0032446042 -0.11428906 0.051158335 -0.049881782 0.0006190285 0.041451078 0.063221246 0.028189184
-0.005378985 0.063057624 -0.12768085 0.15480617 -0.018046128 0.03951182 0.066593006 0.032535214
-0.13978173 -0.03418926 0.115674846 -0.16045035 0.1520598 -0.03449627 -0.101050004 0.06886976
0.09974716 -0.23290628 0.06468628 0.11188319 0.061680935 0.012435637 0.06544611 0.11414482
0.00042824826 -0.044180207 0.13758187 -0.071611024 -0.076403156 -0.028339447 0.045870803 -0.0963083
0.023478298 -0.051085956 -0.102132425 -0.051477235 -0.023498595 0.040344387 -0.021564363 -0.05036476
0.10933255 -0.04098915 0.08527595 -0.031848274 -0.030781653 -0.0971287 0.2041058 0.0827631
-0.10812445 0.11946909 -0.096661754 0.21542394 0.07554842 0.01781664 0.14215863 0.050605074
-0.035105433 0.07853934 -0.17526013 0.1445911 -0.04579869 -0.08512797 0.08587051 0.010405468
0.027258385 -0.10830024 -0.099296056 -0.114106454 0.10757257 -0.114818975 0.07744982 0.016850654
0.018127624 -0.04781618 -0.029499225 0.041880857 -0.09209567 -0.06521542 -0.025092417 0.011439037
0.034025654 0.09827994 0.03619005 -0.082943246 -0.013879734 -0.07660994 -0.04908527 -0.024364065
-0.068820424 0.03958582 0.06394351 0.09770271 -0.10966782 0.07904506 -0.07870249 0.06821322
-0.05475334 0.05000398 0.08241052 -0.011391252 -0.13804373 -0.101734266 0.10683945 0.0042048655
0.065476246 0.06557562 -0.1349994 0.03737545 -0.058800124 0.03887743 -0.21846537 -0.08645033
0.082454674 -0.086958066 -0.020850327 -0.076041326 -0.005922567 0.032428436 -0.1656257 -0.0085056955
-0.104065455 0.17703712 0.14601406 -0.15101528 -0.14165373 -0.06710823 -0.10567735 0.106528535
0.20843309 0.09249535 -0.004196966 -0.012070542 -0.13261767 -0.0049391803 -0.107195266 0.04545568
-0.15340693 -0.098499104 0.017238248 -0.019269463 0.0694385 -0.028855849 -0.21449985 -0.07312151
-0.12138555 0.08304299 0.09690374 0.010456572 -0.063673116 0.024332365 0.11632147 -0.15444872
-0.006733347 -0.07565638 0.030672671 -0.025086835 0.093339235 0.17253195 0.019645805 -0.07967414
0.061025098 0.09303999 -0.114015654 0.2132626 0.10162159 -0.066918224 0.060991216 -0.13069586
-0.07500394 0.0838434 -0.060726136 -0.029148286 -0.079551004 -0.0479256 0.040136367 -0.088186465
0.039649572 -0.0028389385 0.012963589 -0.13789676 0.0764322 0.051777992 0.13226262 0.022429824
-0.03955392 0.033437546 0.031113822 0.05618388 0.019454317 0.012188053 -0.08476545 -0.07528515
-0.0017055578 -0.07274018 0.013586307 0.027305499 -0.116725765 -0.050680004 -0.031432442 0.038556054
-0.09952521 -0.15068664 0.0066358955 -0.028962813 0.06457823 0.036859065 -0.08153613 0.06776738
-0.0022476604 0.026209895 -0.08556687 0.06664721 0.08968145 0.07715535 -0.10875954 -0.109503604
-0.10406584 0.012161311 0.101208694 -0.14803405 0.09204442 0.1651262 0.0021248676 0.0023985533
0.09070316 0.043733384 0.015944334 0.028472723 0.06820075 -0.13300431 0.012041357 -0.08309009
00000000: 7390 9dbc 56a6 b9bc 00b4 29be 34e4 a83c
00000010: 80de 62bb 1513 b8bc 148e 303c cdbe 5a3d
00000020: 71d7 a43d bbe0 14be 1c05 e2bc cb1c 73be
00000030: f9ca 99bd d898 af3c 644d 173c 63a7 febc
00000040: 6da3 543b 6210 eabd 678b 513d d750 4cbd
00000050: 4d46 223a 9bc8 293d 247a 813d 01ed e63c
00000060: 3242 b0bb 5b24 813d c5be 02be 8285 1e3e
00000070: 79d5 93bc 25d7 213d ea61 883d a543 053d
00000080: f122 0fbe 0a0a 0cbd efe6 ec3d 194d 24be
00000090: 90b5 1b3e f64b 0dbd 4ef3 cebd 970b 8d3d
000000a0: 3d48 cc3d fc7e 6ebe 3e7a 843d 0423 e53d
000000b0: 26a5 7c3d d8be 4b3c 9c08 863d c2c4 e93d
000000c0: 8286 e039 4ef6 34bd 43e2 0c3e cda8 92bd
000000d0: 4279 9cbd 2128 e8bc 06e3 3b3d 493d c5bd
000000e0: 8f55 c03c 823f 51bd ce2a d1bd cbd9 52bd
000000f0: 2080 c0bc 2840 253d bfa7 b0bc 474b 4ebd
00000100: bee9 df3d 3de4 27bd 28a5 ae3d 5673 02bd
00000110: ce29 fcbc 69eb c6bd 1c01 513e b37f a93d
00000120: 5a70 ddbd 36ac f43d 99f6 c5bd 1898 5c3e
00000130: 21b9 9a3d 34f4 913c 0892 113e 4447 4f3d
00000140: b7ca 0fbd 3cd9 a03d 6477 33be b00f 143e
00000150: 6897 3bbd 9357 aebd e1dc af3d b27b 2a3c
00000160: fa4c df3c 84cc ddbd bb5b cbbd a5b0 e9bd
00000170: 024f dc3d 3626 ebbd 039e 9e3d 620a 8a3c
00000180: 6280 943c e6da 43bd 5ca8 f1bc 438b 2b3d
00000190: a89c bcbd aa8f 85bd 9d8e cdbc cc6a 3b3c
000001a0: 7c5e 0b3d fe46 c93d 053c 143d 26de a9bd
000001b0: d367 63bc ace5 9cbd a30d 49bd 2697 c7bc
000001c0: b9f1 8cbd be24 223d d1f4 823d 5c18 c83d
000001d0: 8699 e0bd 60e2 a13d c52e a1bd 5fb3 8b3d
000001e0: 0a45 60bd f9d0 4c3d d9c6 a83d 60a2 3abc
000001f0: 565b 0dbe 0e5a d0bd a4ce da3d f8c8 893b
00000200: 6918 863d 834c 863d 483d 0abe 0017 193d
00000210: 66d8 70bd f13d 1f3d 63b5 5fbe df0c b1bd
00000220: ffdd a83d 1217 b2bd 4ece aabc 8ebb 9bbd
00000230: 1812 c2bb aed3 043d c999 29be 795b 0bbc
00000240: 4520 d5bd 3849 353e b684 153e c0a3 1abe
00000250: ad0d 11be 0a70 89bd 5e6d d8bd a22b da3d
00000260: 7c6f 553e 346e bd3d b486 89bb 86c3 45bc
00000270: edcc 07be d9d8 a1bb 3189 dbbd bc2f 3a3d
00000280: b516 1dbe e6b9 c9bd 3a37 8d3c feda 9dbc
00000290: c635 8e3d 1a63 ecbc d9a5 5bbe bbc0 95bd
000002a0: fd98 f8bd 7112 aa3d 7875 c63d 0b52 2b3c
000002b0: 0d67 82bd ab54 c73c f339 ee3d ce27 1ebe
000002c0: 69a3 dcbb bbf1 9abd 4145 fb3c e882 cdbc
000002d0: a428 bf3d 37ac 303e 3df0 a03c 322c a3bd
000002e0: 74f5 793d c08b be3d 0a81 e9bd 8361 5a3e
000002f0: fb1e d03d 6c0c 89bd edd1 793d 23d5 05be
00000300: aa9b 99bd 17b6 ab3d f8bb 78bd 63c8 eebc
00000310: a3eb a2bd a24d 44bd 0866 243d 1b9b b4bd
00000320: 9767 223d 7c0d 3abb 3c65 543c cf34 0dbe
00000330: 7c88 9c3d 2915 543d da6f 073e c0be b73c
00000340: 4b03 22bd cff5 083d 6ae2 fe3c 1121 663d
00000350: a95e 9f3c 66b0 473c 8299 adbd 1a2f 9abd
00000360: 068d dfba cef8 94bd 1a99 5e3c c8af df3c
00000370: eb0d efbd d695 4fbd 4ebf 00bd f4ec 1d3d
00000380: e0d3 cbbd 994d 1abe ed71 d93b 6c43 edbc
00000390: 9741 843d 88f9 163d 6afc a6bd a0c9 8a3d
000003a0: 7c4d 13bb 22b6 d63c af3d afbd 557e 883d
000003b0: e8aa b73d a003 9e3d 52bd debd 6d43 e0bd
000003c0: 7920 d5bd 3c40 473c 8146 cf3d 3d96 17be
000003d0: c981 bc3d d816 293e 5d41 0b3b 0c31 1d3b
000003e0: 94c2 b93d c721 333d b19d 823c a13f e93c
000003f0: d6ac 8b3d 4832 08be 1d49 453c 232b aabd

lstm.bias_ih_l0 f4 [256]
0.11459486 0.12628041 0.03664757 0.08265715 0.021750666 0.049830683 0.22872083 0.1461934
0.05262393 0.08043401 0.0868677 0.06358547 0.13065009 -0.06303532 0.07511948 -0.091049924
0.04032329 0.0616478 0.24941355 0.05009985 -0.04343657 -0.13508387 0.13497865 -0.01714815
0.17594613 0.055805795 -0.11146943 0.09218885 -0.046941686 -0.06420785 -0.11834428 -0.115279056
0.052019376 -0.102552265 0.047078896 0.1322032 -0.064939424 -0.035940394 -0.09643151 0.1181918
-0.07846873 0.37349975 0.10254908 0.19403186 0.056554884 0.09739865 0.15431507 0.09112617
-0.051590003 0.0038666178 -0.03703617 0.0050503286 -0.035364263 0.19022772 0.08263203 -0.092791095
-0.0442383 0.12391445 -0.068408705 0.009943366 0.061954435 -0.109225124 -0.0035357627 0.12639757
-0.09382888 -0.0016753231 -0.009758168 0.019944588 -0.07466899 -0.030361958 0.07334987 -0.032495
0.10947361 0.04169368 -0.002098802 0.07109642 0.05923929 0.07242684 0.046456352 0.02674675
0.13301785 -0.025027387 -0.14135914 0.15860218 -0.097609594 -0.08972571 0.111547925 0.08292269
0.06961267 -0.005413436 -0.009089443 -0.082160294 0.040639244 -0.103219315 0.019017639 -0.061783887
-0.06571911 0.027933754 -0.090438746 0.12574337 -0.035584398 -0.081933685 0.09123452 0.084856234
-0.07674264 -0.20036754 -0.11749586 0.14406712 0.07384278 -0.045409426 0.080915056 0.038640574
0.0830168 -0.039282944 0.09900749 0.06656824 -0.012972767 0.054995254 0.076856956 0.06326706
-0.081104815 -0.08058401 0.050915357 0.10974785 -0.1027198 -0.01626656 -0.11770833 0.073937
-0.031906337 0.12744416 -0.06048387 0.010955914 0.03820433 -0.08788808 0.035302006 -0.115459554
0.09856508 0.048076916 -0.10901504 -0.070746645 0.06941676 -0.10940641 0.007350651 0.09070933
-0.01629247 0.111792475 0.13613401 0.011070259 -0.091357246 -0.09315993 -0.1327349 -0.015590885
0.019530393 0.099711575 0.12770708 -0.06328185 -0.10921847 -0.12563506 0.038559567 0.033789612
0.06985112 -0.022826688 -0.06101208 -0.05885267 -0.033379007 -0.06932718 -0.029666359 -0.060551632
-0.09116892 0.041004807 0.053347178 0.011401244 0.12198681 -0.02243929 -0.0050912295 -0.050549563
-0.11747489 -0.09919773 -0.07174504 -0.009292049 -0.01679684 0.06580531 -0.006890989 -0.074658595
0.08431225 -0.005686613 0.06205735 -0.011797505 -0.058476217 -0.07454207 0.099203385 0.07512293
0.060934838 -0.086311795 0.19651558 0.008319784 -0.05103927 0.09165434 0.009695782 -0.034034252
0.056730762 0.021828104 0.030479196 0.0867487 -0.05494403 0.04624076 0.10486129 -0.031059071
0.030700352 -0.083509356 0.24512371 0.07704742 0.044032488 0.08198114 0.107592694 -0.015946629
-0.023320459 -0.07533611 -0.08074547 0.10336097 0.13656823 0.0869135 -0.067120336 -0.08907085
0.112239495 0.059771355 -0.08185412 0.0062404685 0.09399517 -0.047183428 -0.008735107 0.020006018
-0.026223233 0.5004858 0.022814883 0.107612595 -0.011313112 -0.04858357 0.005211806 0.025768775
0.1209854 0.05490643 0.00035283866 0.040398903 -0.0336451 0.18470778 -0.048005525 0.106301285
0.06693233 0.059087574 0.03953681 0.0050534257 0.10208834 -0.106991194 -0.09248952 0.049628124
00000000: b6b0 ea3d a74f 013e c31b 163d 2748 a93d
00000010: 742e b23c 421b 4c3d cb35 6a3e b9b3 153e
00000020: 318c 573d 96ba a43d b1e7 b13d 1939 823d
00000030: 23c9 053e a918 81bd 3ed8 993d 6278 babd
00000040: 092a 253d 6782 7c3d 4466 7f3e 8035 4d3d
00000050: 8bea 31bd 6d53 0abe d837 0a3e 477a 8cbc
00000060: 392b 343e 9e94 643d 164a e4bd 82cd bc3d
00000070: ed45 40bd 687f 83bd 7c5e f2bd 6d17 ecbd
00000080: 4512 553d ec06 d2bd cdd5 403d 4760 073e
00000090: f6fe 84bd 3c36 13bd e27d c5bd 8b0e f23d
000000a0: 37b4 a0bd 5c3b bf3e 4105 d23d 4ab0 463e
000000b0: 18a6 673d f278 c73d c504 1e3e 5ba0 ba3d
000000c0: 0a50 53bd 1567 7d3b 3db3 17bd 3a7d a53b
000000d0: 1eda 10bd 0ecb 423e fb3a a93d 4209 bebd
000000e0: 3833 35bd dcc6 fd3d dd19 8cbd 80e9 223c
000000f0: efc3 7d3d 6cb1 dfbd 41b8 67bb 5d6e 013e
00000100: 5b29 c0bd 8496 dbba b9e0 1fbc d562 a33c
00000110: 0eec 98bd a4b9 f8bc 7538 963d 7a19 05bd
00000120: b333 e03d fec6 2a3d 0e8c 09bb 009b 913d
00000130: e6a4 723d 8654 943d 0449 3e3d 001c db3c
00000140: d535 083e 3c06 cdbc 73c0 10be 9c68 223e
00000150: 8ae7 c7bd 1dc2 b7bd 3d73 e43d 5fd3 a93d
00000160: 1691 8e3d 3163 b1bb e3eb 14bc a843 a8bd
00000170: 5675 263d a664 d3bd e1ca 9b3c 1a11 7dbd
00000180: be97 86bd 54d5 e43c f337 b9bd dfc2 003e
00000190: f2c0 11bd d9cc a7bd 2ad9 ba3d 1bc9 ad3d
000001a0: 3f2b 9dbd 262d 4dbe aba1 f0bd 5586 133e
000001b0: e23a 973d 3cff 39bd cbb6 a53d 9445 1e3d
000001c0: b604 aa3d 27e7 20bd 70c4 ca3d ee54 883d
000001d0: bb8b 54bc b442 613d 2e67 9d3d 2992 813d
000001e0: 481a a6bd 3b09 a5bd 9f8c 503d 7bc3 e03d
000001f0: c25e d2bd 7341 85bc 1111 f1bd 486c 973d
00000200: 38b0 02bd b980 023e efbd 77bd 6f80 333c
00000210: 257c 1c3d aafe b3bd d698 103d 0f76 ecbd
00000220: 7ddc c93d 4dec 443d 4743 dfbd 9ee3 90bd
00000230: 602a 8e3d 7810 e0bd bbdd f03b d0c5 b93d
00000240: c977 85bc 74f3 e43d b766 0b3e 0860 353c
00000250: 8219 bbbd a2ca bebd a8eb 07be e970 7fbc
00000260: 34fe 9f3c 9535 cc3d a5c5 023e ea99 81bd
00000270: efad dfbd 7aa6 00be a3f0 1d3d fa66 0a3d
00000280: 1b0e 8f3d 09ff babc cee7 79bd 7f0f 71bd
00000290: 6db8 08bd 69fb 8dbd dd06 f3bc fd04 78bd
000002a0: c5b6 babd a8f4 273d 9282 5a3d 49cc 3a3c
000002b0: 38d4 f93d 9ad2 b7bc 54d4 a6bb 0f0d 4fbd
000002c0: ad96 f0bd 2e28 cbbd 10ef 92bd ae3d 18bc
000002d0: 8799 89bc efc4 863d cecd e1bb 9be6 98bd
000002e0: e7ab ac3d c456 babb d92f 7e3d 534a 41bc
000002f0: c284 6fbd 83a9 98bd 252b cb3d 0dda 993d
00000300: cf96 793d 3dc4 b0bd 613b 493e b44f 083c
00000310: 8e0e 51bd 45b5 bb3d 0fdb 1e3c 8067 0bbd
00000320: 845e 683d dad0 b23c 82af f93c 4da9 b13d
00000330: fe0c 61bd f366 3d3d 84c1 d63d 986f febc
00000340: 4e7f fb3c f406 abbd b601 7b3e 0acb 9d3d
00000350: 695b 343d bae5 a73d 8f59 dc3d 81a2 82bc
00000360: 8c0a bfbc d249 9abd e25d a5bd ebae d33d
00000370: 8bd8 0b3e b5ff b13d 6376 89bd c76a b6bd
00000380: d2dd e53d cfd2 743d 22a3 a7bd d87c cc3b
00000390: 8a80 c03d 6943 41bd b21d 0fbc a9e3 a33c
000003a0: 1bd2 d6bc d61f 003f 47e6 ba3c fe63 dc3d
000003b0: a25a 39bc 91ff 46bd ccc7 aa3b 0a19 d33c
000003c0: 32c7 f73d 91e5 603d 34fd b839 5279 253d
000003d0: 72cf 09bd 0924 3d3e 71a1 44bd 7db4 d93d
000003e0: d113 893d d005 723d 5af1 213d 3597 a53b
000003f0: b113 d13d 331e dbbd 256b bdbd dc46 4b3d

lstm.bias_hh_l0 f4 [256]
0.08719674 0.09549006 -0.035373483 -0.044544276 -0.042739052 0.087309584 0.15258428 0.04881021
-0.040943366 0.11177401 -0.040881854 -0.02031267 0.077101395 0.05624291 0.04562506 -0.06355374
0.019033108 0.073802784 0.21292755 0.17611225 -0.041376155 0.015010748 -0.044679526 -0.07545129
-0.0019181304 0.105305135 0.015753852 0.08321203 -0.033897247 0.1024721 -0.07882452 -0.003133488
0.028098974 -0.09144342 0.048508924 0.07292136 -0.11706288 0.17181739 0.05541033 0.028544921
-0.08384625 0.50201815 -0.11271616 0.24631923 0.12141048 -0.06439407 0.03463757 -0.10559482
0.032923736 0.115816355 0.029250013 -0.059887636 -0.019927924 0.22413132 0.12055407 0.021583308
-0.10674923 0.10832663 -0.021751434 0.16593046 -0.024324408 0.04001927 0.10397617 0.047181807
-0.014812777 -0.032692127 -0.043213252 -0.029981835 -0.11049411 0.07856522 0.0744547 0.021479191
0.0030172304 0.11228318 -0.026425924 -0.040572487 0.084891975 -0.101910904 0.11754465 -0.082426734
0.10938123 -0.09655975 -0.041769493 0.12672256 0.06231781 -0.083068825 -0.06887222 -0.09665405
-0.052624617 0.024845745 0.005581059 0.07985075 -0.039579004 -0.11715303 0.112770386 0.035015725
0.10386032 0.015482016 0.0840336 0.10160975 -0.056786448 0.08804133 0.043763854 -0.14219119
-0.085342534 -0.1236874 -0.13005595 0.16685425 -0.044130795 0.058482714 0.071878105 -0.0059439023
0.13377021 0.13144289 0.031282436 0.020822693 0.037448976 -0.07459346 -0.0053187343 -0.13397777
-0.10868412 -0.08748623 -0.08006142 -0.058929715 0.061640408 -0.017338542 -0.037343338 0.019135151
-0.08061146 0.034648124 0.000843241 -0.032196816 -0.100893155 -0.041245095 -0.09843331 0.044743493
0.063535586 -0.1106828 -0.11150817 0.04441736 -0.017741395 0.05803359 -0.0043260087 0.022829512
-0.0632911 0.00986569 -0.09190745 -0.03928099 0.0461363 -0.050360862 -0.063353226 0.037254687
0.025354765 -0.01420249 0.042478953 -0.11999969 -0.06421021 -0.09079391 -0.10063458 0.0553577
-0.084861435 -0.0595992 -0.13023473 0.060738135 -0.014146748 -0.017767595 -0.10519076 -0.065459274
0.0442803 -0.1047574 0.0072308215 0.078959815 0.008854859 -0.008660324 -0.027586354 -0.103146955
-0.026748894 0.071969554 0.08281491 -0.08651137 0.07944865 0.040324014 -0.043974053 -0.06877238
-0.038501155 0.13032906 -0.040086206 0.05183337 -0.023500016 -0.00059111544 0.03388924 -0.045350075
0.02109192 -0.04323259 0.016574198 -0.010049615 0.014599129 0.050526302 0.19374612 0.039202757
-0.08603918 0.10543417 -0.048642304 0.06627448 -0.101302385 -0.055172715 -0.010978202 -0.109362006
-0.027343733 0.08192924 0.26325998 0.07130331 0.19640355 -0.07349947 -0.010202602 0.1443767
0.058411382 0.07048935 0.08744863 0.018552653 0.056796085 0.007940068 -0.08257782 -0.044061262
0.12708625 -0.11943868 0.12225379 0.14416616 -0.05533804 -0.06531962 -0.0638609 -0.051996466
-0.051687885 0.44993484 0.045339137 0.24798566 -0.10360903 -0.01161883 0.19424847 0.03606188
-0.07398699 0.0376709 -0.022761136 -0.068306625 -0.07701764 0.25375906 -0.0060157473 0.08788022
0.11271729 -0.08409272 -0.010006482 0.025552832 0.019914929 -0.11867318 -0.07940749 0.019001173
00000000: 3494 b23d 4b90 c33d c9e3 10bd 0f74 36bd
00000010: 250f 2fbd 5ecf b23d 0e3f 1c3e 37ed 473d
00000020: 3bb4 27bd c6e9 e43d bb73 27bd c266 a6bc
00000030: 56e7 9d3d f75e 663d 58e1 3a3d 7728 82bd
00000040: 52eb 9b3c ea25 973d ae09 5a3e c556 343e
00000050: 0b7a 29bd a4ef 753c e101 37bd 3586 9abd
00000060: c769 fbba 38aa d73d 390e 813c 126b aa3d
00000070: d7d7 0abd e4dc d13d c06e a1bd 345b 4dbb
00000080: d22f e63c b046 bbbd 4bb1 463d cb57 953d
00000090: aabe efbd e6f0 2f3e f1f5 623d 0ad7 e93c
000000a0: 95b7 abbd 4384 003f bbd7 e6bd 1c3b 7c3e
000000b0: 0fa6 f83d 0ae1 83bd 20e0 0d3d 1942 d8bd
000000c0: 0adb 063d 2031 ed3d b99d ef3c bd4c 75bd
000000d0: e33f a3bc ae82 653e 0de5 f63d 7acf b03c
000000e0: 579f dabd 5ada dd3d 1030 b2bc ade9 293e
000000f0: fb43 c7bc 3feb 233d 75f1 d43d b641 413d
00000100: 4ab1 72bc 2ee8 05bd 6100 31bd 779c f5bc
00000110: bc4a e2bd cde6 a03d b57b 983d 21f5 af3c
00000120: babc 453b b9f4 e53d 2e7b d8bc 562f 26bd
00000130: d8db ad3d aab6 d0bd 40bb f03d 59cf a8bd
00000140: 4403 e03d 1ec1 c5bd 7d16 2bbd 8fc3 013e
00000150: f640 7f3d fd1f aabd e10c 8dbd 8ff2 c5bd
00000160: e98c 57bd 4e89 cb3c 51e1 b63b ca88 a33d
00000170: 981d 22bd eeed efbd 29f4 e63d a66c 0f3d
00000180: b8b4 d43d 48a8 7d3c cf19 ac3d c618 d03d
00000190: e898 68bd 034f b43d ba41 333d 919a 11be
000001a0: 11c8 aebd d24f fdbd 632d 05be d7db 2a3e
000001b0: 7ec2 34bd 928b 6f3d d434 933d 11c5 c2bb
000001c0: 0ffb 083e f798 063e 0322 003d 5a94 aa3c
000001d0: 1964 193d 75c4 98bd c748 aebb 7831 09be
000001e0: c895 debd fb2b b3bd 3ef7 a3bd 4960 71bd
000001f0: a77a 7c3d 8f09 8ebc 54f5 18bd 52c1 9c3c
00000200: 9f17 a5bd 31eb 0d3d f20c 5d3a cfe0 03bd
00000210: 12a1 cebd 9ef0 28bd 6797 c9bd f444 373d
00000220: f21e 823d aaad e2bd 655e e4bd faee 353d
00000230: 6756 91bc a1b4 6d3d 31c1 8dbb f504 bb3c
00000240: c49e 81bd b4a3 213c f939 bcbd 1ae5 20bd
00000250: 6bf9 3c3d 3147 4ebd 56bf 81bd 5f98 183d
00000260: ccb4 cf3c 90b1 68bc 69fe 2d3d 66c2 f5bd
00000270: a580 83bd 28f2 b9bd 8119 cebd c1be 623d
00000280: d5cb adbd 4a1e 74bd 415c 05be 8dc8 783d
00000290: c3c7 67bc 598d 91bc 416e d7bd 830f 86bd
000002a0: 435f 353d 0c8b d6bd 87f0 ec3b afb5 a13d
000002b0: f813 113c 08e4 0dbc c7fc e1bc b63e d3bd
000002c0: 7f20 dbbc c664 933d dd9a a93d e02c b1bd
000002d0: f9b5 a23d cb2a 253d 231e 34bd 89d8 8cbd
000002e0: 63b3 1dbd fb74 053e 6f31 24bd 3a4f 543d
000002f0: 1b83 c0bc 16f5 1aba 72cf 0a3d 00c1 39bd
00000300: f6c8 ac3c a814 31bd 9dc6 873c 24a7 24bc
00000310: 2f31 6f3c abf4 4e3d 6265 463e 1293 203d
00000320: 4f35 b0bd dfed d73d 273d 47bd eaba 873d
00000330: a077 cfbd c9fc 61bd ebdd 33bc 30f9 dfbd
00000340: f7ff dfbc 84ca a73d 03ca 863e 7807 923d
00000350: 031e 493e e486 96bd d028 27bc 7cd7 133e
00000360: c640 6f3d b85c 903d 4418 b33d bcfb 973c
00000370: 03a3 683d 0f17 023c 8f1e a9bd 9579 34bd
00000380: e622 023e 449c f4bd 3260 fa3d 4ba0 133e
00000390: 24aa 62bd 4bc6 85bd 81c9 82bd 3ffa 54bd
000003a0: adb6 53bd dc5d e63e 88b5 393d f4ef 7d3e
000003b0: f930 d4bd e85c 3ebc 12e9 463e 9fb5 133d
000003c0: 7e86 97bd cd4c 1a3d 9075 babc 58e4 8bbd
000003d0: 6dbb 9dbd b5ec 813e bf1f c5bb 8bfa b33d
000003e0: 53d8 e63d ce38 acbd 3af2 23bc 2c54 d13c
000003f0: a224 a33c ed0a f3bd 65a0 a2bd 59a8 9b3c

lstm.weight_ih_l1 f4 [256, 64]
0.03283146 0.09817518 -0.05326063 -0.038962442 0.009559544 0.12037148 -0.030486327 0.07670493
0.022537274 -0.07906608 -0.04670514 0.110323094 0.015950369 0.003614755 -0.050745178 -0.08955584
0.10724052 -0.028835742 -0.1358632 0.04065129 0.046632223 -0.09049697 -0.07089654 -0.026259078
0.08384866 -0.10381534 0.083707534 -0.07588084 0.04263093 -0.06524889 -0.04404187 0.0794031
0.08017633 0.0006788714 0.06131931 0.02572904 0.10949694 -0.10700708 -0.044811506 -0.06110874
-0.05846562 0.11032807 -0.100047655 0.118690416 -0.07778345 0.0036124995 0.04867692 -0.08895252
-0.009520951 0.060435206 -0.07775744 -0.055673324 -0.011733252 -0.08485891 -0.108001254 -0.05397071
-0.016962234 -0.11990273 -0.08726043 0.14123057 0.02584316 -0.06041078 -0.07604697 -0.04108426
0.04888626 0.012355483 -0.012825642 0.16437288 0.045938063 0.041753616 0.07341003 0.08724223
-0.08762131 0.12835534 -0.021314103 0.09662575 0.011102255 -0.04836318 0.12251577 -0.008976436
0.034913704 0.012522655 -0.054442514 0.15072341 -0.08269534 -0.060745127 0.05106937 -0.10328999
0.01582296 0.08053417 0.08112168 0.00043750508 0.11444793 -0.12070913 -0.046105355 -0.042416126
0.11112854 0.11466064 -0.023921385 0.08158463 0.07223705 -0.07606699 0.11397763 0.027272489
-0.048124906 0.23123734 0.10674523 -0.072366424 0.124075845 -0.072067596 -0.11394663 -0.07951312
0.05728855 -0.04753724 -0.091329955 -0.025374409 0.11811571 -0.0551312 -0.057927847 -0.084763594
0.069974035 0.06931464 0.15261538 -0.1454928 0.11514597 -0.098296724 0.10818013 0.051717985
0.108459875 0.09515295 -0.023710938 -0.067083105 0.073418766 0.001767875 0.17816329 -0.0434634
-0.061934266 0.051721025 -0.045141302 0.005839002 -0.08447683 0.05846188 0.14274271 0.10049822
-0.110979125 0.027316356 -0.15890066 0.14339928 0.09469104 -0.10837931 -0.080951795 -0.032114383
-0.20037112 0.054471683 -0.06595252 -0.051728617 -0.12107497 0.11935102 -0.12043621 -0.021993892
0.055991303 0.116166376 0.073730245 0.0559688 -0.10903379 0.08340531 0.031467408 -0.034218434
-0.028597811 0.13220648 0.0035871463 -0.14763446 0.051038153 -0.050085887 -0.042487815 -0.04798502
-0.0905272 -0.022076977 0.07744635 0.054470457 0.12242301 -0.00217842 0.06475038 -0.017468998
0.04311726 0.03272884 0.121460155 0.017892342 0.06702377 0.09416036 -0.032319874 0.13338283
-0.057665788 0.007256789 0.13699669 -0.07124943 0.014649966 -0.10846007 -0.11265253 -0.08182783
-0.01069137 -0.078476325 -0.0820815 0.066603936 -0.03236359 0.06727293 -0.083018415 -0.013781476
-0.06367916 0.018282162 -0.00047612414 0.06446685 -0.05918399 -0.0832418 0.047726702 0.12888803
0.11636321 0.09506855 -0.11671983 -0.06585702 0.122015186 -0.11166798 -0.047405984 -0.029266227
0.10085691 0.09417569 -0.016612982 -0.08217439 0.10107449 0.002098592 0.1337732 -0.08854338
-0.014615827 -0.0075980984 0.016612807 0.10960816 0.06255924 0.01595736 -0.043338124 0.060405876
-0.010874419 -0.02848816 0.11693409 0.103030965 -0.004412039 -0.1374761 0.04069651 -0.013267954
0.03235439 -0.060139198 0.06849419 -0.091662884 -0.06606528 -0.022582995 0.087270424 -0.065245666
00000000: 487a 063d 1210 c93d d227 5abd 1597 1fbd
00000010: a29f 1c3c 5385 f63d 76be f9bc 7917 9d3d
00000020: 17a0 b83c 66ed a1bd e44d 3fbd 13f1 e13d
00000030: 59aa 823c 87e5 6c3b 2dda 4fbd 0d69 b7bd
00000040: eba0 db3d ef38 ecbc b91f 0bbe f881 263d
00000050: 6e01 3f3d 7a56 b9bd 3532 91bd 471d d7bc
00000060: d9b8 ab3d 239d d4bd db6e ab3d 6a67 9bbd
00000070: c59d 2e3d 36a1 85bd 3f65 34bd 189e a23d
00000080: 7d33 a43d 4af6 313a f529 7b3d b5c5 d23c
00000090: ef3f e03d 8726 dbbd 458c 37bd 284d 7abd
000000a0: a579 6fbd aff3 e13d c9e5 ccbd f613 f33d
000000b0: ee4c 9fbd afbf 6c3b 7361 473d bd2c b6bd
000000c0: c3fd 1bbc e88a 773d 4b3f 9fbd b609 64bd
000000d0: d33c 40bc 82ca adbd c32f ddbd 6410 5dbd
000000e0: 62f4 8abc 908f f5bd 99b5 b2bd bf9e 103e
000000f0: 09b5 d33c 4b71 77bd 84be 9bbd f847 28bd
00000100: f53c 483d a76e 4a3c a422 52bc 5d51 283e
00000110: 8d29 3c3d d705 2b3d ff57 963d 0eac b23d
00000120: cd72 b3bd 956f 033e ea9a aebc b9e3 c53d
00000130: 3ce6 353c 7818 46bd 8ce9 fa3d e711 13bc
00000140: ac01 0f3d d22b 4d3c 1dff 5ebd 3d57 1a3e
00000150: 2d5c a9bd e2cf 78bd 1e2e 513d b489 d3bd
00000160: 279f 813c 19ef a43d 2023 a63d f060 e539
00000170: ad63 ea3d 5936 f7bd f8d8 3cbd 88bc 2dbd
00000180: 5c97 e33d 33d3 ea3d c8f6 c3bc d815 a73d
00000190: 05f1 933d 03c9 9bbd 1b6d e93d 8e6a df3c
000001a0: 9f1e 45bd 7bc9 6c3e 3e9d da3d d934 94bd
000001b0: 7a1b fe3d 2d98 93bd da5c e9bd c6d7 a2bd
000001c0: 66a7 6a3d 69b6 42bd 330b bbbd fedd cfbc
000001d0: a6e6 f13d 41d1 61bd c045 6dbd 8998 adbd
000001e0: 8c4e 8f3d d5f4 8d3d 3547 1c3e 11fc 14be
000001f0: a6d1 eb3d cb4f c9bd 8b8d dd3d 3dd6 533d
00000200: 3620 de3d 8ddf c23d 713d c2bc de62 89bd
00000210: 945c 963d 0bb8 e73a 7070 363e ae06 32bd
00000220: c9ae 7dbd 6dd9 533d 16e6 38bd 1955 bf3b
00000230: 3002 adbd b975 6f3d 252b 123e 03d2 cd3d
00000240: 0649 e3bd 8dc6 df3c dbb6 22be 43d7 123e
00000250: 60ed c13d f9f5 ddbd 0eca a5bd 5f8a 03bd
00000260: 162e 4dbe b31d 5f3d 1d12 87bd 63e1 53bd
00000270: 27f6 f7bd 4f6e f43d 42a7 f6bd 892c b4bc
00000280: 2357 653d a3e8 ed3d e2ff 963d 8a3f 653d
00000290: 1c4d dfbd 67d0 aa3d f8e3 003d a128 0cbd
000002a0: f545 eabc 2361 073e 5416 6b3b 7d2d 17be
000002b0: 620d 513d dc26 4dbd b407 2ebd f18b 44bd
000002c0: 5366 b9bd c7da b4bc 319c 9e3d 6a1c 5f3d
000002d0: eab8 fa3d d3c3 0ebb d99b 843d 251b 8fbc
000002e0: b99b 303d ad0e 063d 1ac0 f83d f692 923c
000002f0: c243 893d 26d7 c03d d861 04bd 8295 083e
00000300: f632 6cbd 5cca ed3b dc48 0c3e 39eb 91bd
00000310: 6906 703c 5020 debd 5fb6 e6bd 5995 a7bd
00000320: db2a 2fbc 32b8 a0bd 581a a8bd a567 883d
00000330: af8f 04bd 64c6 893d 8f05 aabd b3cb 61bc
00000340: 386a 82bd 79c4 953c 4da0 f9b9 3207 843d
00000350: e96a 72bd ad7a aabd 137d 433d 39fb 033e
00000360: d64f ee3d 4db3 c23d ce0a efbd 0ce0 86bd
00000370: 19e3 f93d 2fb2 e4bd c72c 42bd babf efbc
00000380: 118e ce3d 2fdf c03d f317 88bc 0c4b a8bd
00000390: 2400 cf3d 8888 093b d7fb 083e 3b56 b5bd
000003a0: 3977 6fbc 78f9 f8bb 9517 883c 3e7a e03d
000003b0: 0f1f 803d 02b9 823c 5183 31bd 276c 773d
000003c0: 9e2a 32bc 0060 e9bc 247b ef3d e601 d33d
000003d0: de92 90bb 89c6 0cbe 62b1 263d d561 59bc
000003e0: 0986 043d 8554 76bd af46 8c3d c0b9 bbbd
000003f0: 3c4d 87bd f9ff b8bc d6ba b23d 859f 85bd

lstm.weight_hh_l1 f4 [256, 64]
-0.11893974 -0.06585317 -0.10368143 -0.024166651 -0.01272935 0.022890147 -0.10275944 0.123518504
-0.04077332 0.011607121 0.13363881 0.03943747 0.12585019 0.0314962 -0.059497252 -0.06367936
0.029783364 -0.1036122 0.045144025 -0.04646164 -0.030151 0.13575657 0.09885932 -0.01550304
0.0013481255 0.050383016 0.036200568 0.11473365 0.075906105 0.09018075 0.09928674 0.025490472
-0.05513126 -0.03305847 -0.06928965 0.08593188 0.0096086785 -0.100992605 0.090192296 -0.076646365
-0.055078994 -0.03849994 0.09140116 -0.0039775623 0.036213584 0.10832429 -0.047001902 -0.09432091
-0.056170017 -0.028319959 -0.07271671 -0.09107993 0.06110833 0.085953966 -0.13613963 -0.029452229
-0.03695248 -0.09833229 0.09053794 0.021289809 -0.06403578 -0.07172148 -0.0032499991 0.07067155
0.13952574 -0.0074445675 0.050411545 0.10802905 0.12567593 -0.04033459 0.07629166 -0.05275374
-0.07349229 -0.021254035 -0.10045103 0.07400795 -0.10532297 -0.006464392 0.026517598 0.1397459
0.08880673 -0.034468565 -0.10573118 0.10344339 -0.10728821 -0.12520014 -0.054574717 0.08892553
-0.109789595 -0.087113366 -0.034926135 0.015218551 0.06510744 0.0936384 -0.09657836 -0.027774358
0.11510577 0.036107756 0.1135155 -0.098789 -0.06219418 -0.016310522 -0.07368927 0.039804284
0.022524934 -0.10602936 -0.02240028 0.0076843086 -0.052505217 0.046667226 0.07259269 -0.11078994
-0.04920077 -0.06369049 -0.060029548 0.1079019 -0.07579905 -0.06771818 0.09800574 -0.049301486
0.045034435 0.07118763 -0.05576715 0.115199775 0.04368446 0.0819389 -0.078948036 -0.010940693
0.11309597 -0.11010997 0.11768283 -0.06528607 -0.0015531987 5.9062582e-05 -0.07441194 -0.034865182
-0.07907146 -0.074027345 0.02937282 0.02842936 0.0032040724 0.08434771 -0.055195507 0.06923263
0.1121725 0.086360574 -0.12544182 -0.04294925 0.0797032 -0.12791184 -0.10024335 -0.1185796
-0.028273763 -0.09002621 -0.03802851 0.04239375 0.057484962 0.05237164 -0.0094085215 -0.117166035
0.08997035 0.038076963 -0.006413542 -0.116430506 0.09603697 0.06182201 -0.012625592 -0.0025360477
0.015524468 0.07059721 0.14581892 -0.0675497 -0.08096556 0.06432717 -0.044713173 -0.044761032
-0.10449025 0.09920647 0.0074162004 -0.0031723506 0.08338367 -0.015348352 -0.07321718 -0.041841567
-0.037912995 0.03741072 0.094197296 -0.10813805 -0.030654665 0.08748236 0.107182845 0.11032453
0.0024947827 -0.10873067 -0.03760812 0.027436627 0.1246606 0.10842391 0.08228741 0.11002907
0.0020718854 -0.08522124 0.07328197 -0.07011459 -0.009716508 -0.024912471 -0.086855695 -0.04886905
-0.14013492 0.1306287 -0.046714652 0.14273594 -0.09903683 -0.064464904 0.1319833 -0.06653752
0.10582644 0.11860681 -0.116417065 0.042356897 0.016138457 0.038683873 -0.051219296 -0.10496642
0.07433184 -0.07080257 0.11596068 0.0648336 -0.06743996 -0.032541446 0.059524197 -0.05006473
0.022763599 0.050899047 0.02173009 -0.07881068 -0.07816668 -0.084782735 0.0063145333 0.059594207
0.017765764 -0.03295635 0.044094335 -0.08265537 -0.0726701 0.058846705 -0.08931995 0.117542006
0.014926556 -0.070087984 -0.033749938 0.060497172 0.042528637 0.11382856 -0.007020308 -0.03964076
00000000: ae96 f3bd 07de 86bd ee56 d4bd 24f9 c5bc
00000010: c38e 50bc 1e84 bb3c 8b73 d2bd 45f7 fc3d
00000020: ed01 27bd cb2b 3e3c 9dd8 083e 2f89 213d
00000030: dfde 003e 2902 013d 64b3 73bd 536a 82bd
00000040: 3efc f33c a232 d4bd f1e8 383d 904e 3ebd
00000050: 3bff f6bc c503 0b3e c176 ca3d 7600 7ebc
00000060: 96b3 b03a 6c5e 4e3d 0c47 143d 7af9 ea3d
00000070: a974 9b3d afb0 b83d d956 cb3d 65d1 d03c
00000080: 51d1 61bd 5168 07bd bbe7 8dbd 0efd af3d
00000090: b86d 1d3c 36d5 cebd bdb6 b83d c5f8 9cbd
000000a0: 839a 61bd 1db2 1dbd 8830 bb3d 3656 82bb
000000b0: b254 143d 20d9 dd3d 1185 40bd 522b c1bd
000000c0: 8812 66bd 42ff e7bc 80ec 94bd 1d88 babd
000000d0: ba4c 7a3d a208 b03d 3068 0bbe cd45 f1bc
000000e0: 7c5b 17bd 7162 c9bd f56b b93d f767 ae3c
000000f0: 3125 83bd b6e2 92bd f0fd 54bb 3fbc 903d
00000100: d6df 0e3e 8ff1 f3bb 567c 4e3d 563e dd3d
00000110: 31b1 003e e235 25bd cd3e 9c3d 4e14 58bd
00000120: 2083 96bd f11c aebc 45b9 cdbd 7b91 973d
00000130: 92b3 d7bd 40d3 d3bb 6f3b d93c 8d19 0f3e
00000140: 4ee0 b53d e92e 0dbd 9789 d8bd 21da d33d
00000150: ecb9 dbbd 7734 00be bd89 5fbd 971e b63d
00000160: 5ed9 e0bd 7e68 b2bd b50e 0fbd 3b57 793c
00000170: 0d57 853d 7dc5 bf3d e0ca c5bd 0d87 e3bc
00000180: 93bc eb3d bae5 133d d17a e83d e351 cabd
00000190: 53bf 7ebd a59d 85bc 66ea 96bd d109 233d
000001a0: 3686 b83c ec25 d9bd cb80 b7bc a7cc fb3b
000001b0: b60f 57bd 2226 3f3d 7aab 943d d6e5 e2bd
000001c0: bf86 49bd 2970 82bd 8be1 75bd acfb dc3d
000001d0: 883c 9bbd d4af 8abd 3cb7 c83d 5bf0 49bd
000001e0: 0776 383d d2ca 913d 186c 64bd dced eb3d
000001f0: 7aee 323d 95cf a73d 82af a1bd 9840 33bc
00000200: dc9e e73d 5681 e1bd b203 f13d b4b4 85bd
00000210: b394 cbba f7b9 7738 4a65 98bd cbce 0ebd
00000220: 38f0 a1bd a69b 97bd 459f f03c b0e4 e83c
00000230: 6afb 513b 7ebe ac3d af14 62bd d6c9 8d3d
00000240: b2ba e53d d0dd b03d d273 00be 8eeb 2fbd
00000250: 6e3b a33d 52fb 02be 634c cdbd dcd9 f2bd
00000260: 619e e7bc a95f b8bd c8c3 1bbd 12a5 2d3d
00000270: 5a75 6b3d a583 563d 3326 1abc bff4 efbd
00000280: 6042 b83d 97f6 1b3d b128 d2bb 1e73 eebd
00000290: 08af c43d 1339 7d3d 92db 4ebc d233 26bb
000002a0: 575a 7e3c 4595 903d 8e51 153e 7f57 8abd
000002b0: 46d1 a5bd f7bd 833d 2925 37bd 5857 37bd
000002c0: fcfe d5bd c32c cb3d 9903 f33b 36e7 4fbb
000002d0: 0fc5 aa3d a777 7bbc e4f2 95bd 1062 2bbd
000002e0: a84a 1bbd fc3b 193d 83ea c03d 7b77 ddbd
000002f0: 7e1f fbbc f429 b33d ae82 db3d d4f1 e13d
00000300: 827f 233b 2fae debd f90a 1abd c7c2 e03c
00000310: 0f4e ff3d 5b0d de3d 4d86 a83d ec56 e13d
00000320: 78c8 073b 7988 aebd dc14 963d 3d98 8fbd
00000330: fd31 1fbc 3d15 ccbc 66e1 b1bd ea2a 48bd
00000340: 877f 0fbe 88c3 053e dd57 3fbd 5f29 123e
00000350: d2d3 cabd 2d06 84bd a126 073e d344 88bd
00000360: 88bb d83d 21e8 f23d 126c eebd 6d7e 2d3d
00000370: cc34 843c fb72 1e3d 53cb 51bd a2f8 d6bd
00000380: 4b3b 983d f000 91bd cb7c ed3d 7ac7 843d
00000390: f61d 8abd 2e4a 05bd a5cf 733d ad10 4dbd
000003a0: ba7a ba3c 857b 503d 4d03 b23c 7e67 a1bd
000003b0: da15 a0bd 92a2 adbd 25ea ce3b 0e19 743d
000003c0: 8289 913c 3dfd 06bd 439c 343d 3847 a9bd
000003d0: 10d4 94bd 3e09 713d 61ed b6bd ddb9 f03d
000003e0: 838e 743c 4a8a 8fbd 603d 0abd e2cb 773d
000003f0: 8232 2e3d f31e e93d 9d0a e6bb 595e 22bd

lstm.bias_ih_l1 f4 [256]
-0.09332484 0.06406635 -0.07471154 -0.06216454 0.06679561 0.06507411 0.114462346 -0.08376872
-0.05317049 -0.09978429 0.0071846033 0.004369222 -0.012376678 -0.11039412 -0.021727584 0.0762473
0.046838798 0.14509575 0.09069052 -0.10305631 0.115359336 0.067637876 0.10403757 0.14396934
-0.0142734805 -0.0037116378 0.1100641 0.0692917 -0.120043956 0.03057281 0.08604481 0.112426385
0.010408572 0.006836384 -0.03252147 0.041968495 0.1331654 -0.01774259 0.017173968 -0.10868829
-0.020641806 0.1323832 -0.11426002 -0.017554665 -0.021674233 -0.02514696 0.043789666 -0.089497745
-0.05849174 0.012716363 -0.009070413 -0.008391195 -0.0817149 -0.032056004 -0.08106501 0.11285985
-0.0650115 -0.020824213 0.0138474405 0.11145988 0.09972561 -0.03406393 -0.09293879 -0.1293567
0.06381565 0.039444096 0.12204069 0.10858457 0.016473284 -0.010507005 -0.099227205 -0.04054599
-0.103654645 -0.07626401 0.09300046 -0.13070625 -0.015968902 -0.14112668 0.009876494 -0.13903917
-0.023138944 -0.04964365 -0.0019196399 0.098873146 -0.0466113 -0.029889612 0.041757964 -0.11693695
-0.098484784 0.039119944 -0.04348143 -0.10319651 -0.017321052 -0.11950759 -0.043293554 0.13650085
0.0047680354 0.025854424 0.08437109 -0.0156479 -0.042677693 0.013991538 0.1390111 0.06997946
-0.020878404 -0.022546548 -0.036398802 -0.010995444 0.015693583 0.013153462 0.062625475 0.006693633
-0.10240531 -0.12925203 0.12695962 -0.02564829 -0.08779821 -0.022566197 -0.10756497 0.022194695
-0.021599328 0.11089742 -0.050179206 -0.079647355 0.034608606 0.11207255 0.08537566 -0.0006436816
0.05785981 -0.019571064 0.0813902 -0.044010032 0.027570287 -0.03347534 0.03311352 -0.08940037
0.014004161 0.11528475 -0.069054075 -0.0028296264 -0.07305024 0.053202335 -0.0978232 0.09264539
0.042069253 -0.001804103 -0.09195522 0.0037180763 -0.06377238 -0.040344182 -0.019325834 0.0773079
0.11953522 -0.11854582 -0.0037771503 -0.10596791 0.011845974 -0.06305513 0.01607812 -0.13316298
0.054750115 0.067774825 0.10501878 -0.088824555 0.05818825 -0.062429633 0.13287865 0.09324288
-0.057244785 0.121723115 0.048649967 0.0068711587 0.09027595 0.06376744 -0.015542852 -0.06763578
-0.064959764 0.0043672654 -0.042611025 0.085645296 0.113748424 -0.035852958 0.097448505 0.10991539
0.04518543 0.053897366 0.07303088 0.047337517 0.035584003 0.003969722 0.12510808 0.08902444
0.026649036 -0.09101994 -0.024890995 -0.04744744 -0.14278248 0.11361624 0.08596496 0.040984888
-0.024451455 0.076243386 -0.025471956 -0.07288447 -0.014475396 0.07852873 -0.07670039 -0.008612468
0.0927699 0.09101979 0.07398904 0.023785118 -0.056609686 -0.0023119445 0.066825666 0.16430165
-0.02091563 0.07317172 0.10886203 0.1684102 -0.0050446913 -0.055213332 0.04243055 -0.0335503
0.035613634 0.044810697 -0.006267738 0.13706079 0.078383766 0.07174632 -0.010424459 -0.032760277
0.08684484 -0.04252147 -0.017253999 0.10461507 0.056820825 -0.049055245 -0.08547227 0.080874
0.081643015 -0.03386494 0.12342787 0.017231284 0.11988579 -0.066285655 -0.0005139485 0.007425726
-0.069694586 0.073992066 -0.058337193 0.08923302 -0.03152801 -0.017642748 -0.07477888 -0.052461106
00000000: 1821 bfbd 3835 833d 5d02 99bd 3fa0 7ebd
00000010: 23cc 883d 9345 853d 3c6b ea3d ef8e abbd
00000020: 4dc9 59bd b55b ccbd d26c eb3b b12b 8f3b
00000030: 8dc7 4abc 5016 e2bd 0cfe b1bc 8b27 9c3d
00000040: 0ada 3f3d fb93 143e f4bb b93d 300f d3bd
00000050: 8441 ec3d ba85 8a3d a611 d53d b36c 133e
00000060: 51db 69bc f33e 73bb 4969 e13d cfe8 8d3d
00000070: 9bd9 f5bd d473 fa3c 4338 b03d ce3f e63d
00000080: b788 2a3c bf03 e03b 3c35 05bd 28e7 2b3d
00000090: 835c 083e e858 91bc 6cb0 8c3c f797 debd
000000a0: 0119 a9bc 768f 073e 2801 eabd cdce 8fbc
000000b0: 298e b1bc ff00 cebc cb5c 333d 984a b7bd
000000c0: 0995 6fbd 4b58 503c 129c 14bc 397b 09bc
000000d0: 245a a7bd 284d 03bd 6905 a6bd 1123 e73d
000000e0: c024 85bd 8a97 aabc 60e0 623c 1445 e43d
000000f0: f13c cc3d 9f86 0bbd b156 bebd 1576 04be
00000100: c8b1 823d 2290 213d 78f0 f93d 9661 de3d
00000110: fbf2 863c 9325 2cbc a237 cbbd 8d13 26bd
00000120: e348 d4bd 4e30 9cbd 0677 be3d dcd7 05be
00000130: 37d1 82bc 8383 10be 05d1 213c 4960 0ebe
00000140: e28d bdbc 2457 4bbd 6d9c fbba 017e ca3d
00000150: 7eeb 3ebd 0fdb f4bc 660a 2b3d a47c efbd
00000160: 64b2 c9bd 3c3c 203d 9519 32bd b158 d3bd
00000170: e1e4 8dbc 65c0 f4bd 9554 31bd e1c6 0b3e
00000180: 2e3d 9c3b a8cc d33c c0ca ac3d 0630 80bc
00000190: cece 2ebd c43c 653c ed58 0e3e 6451 8f3d
000001a0: 3009 abbc 8ab3 b8bc e916 15bd 3c26 34bc
000001b0: d48f 803c 9e81 573c c941 803d 4356 db3b
000001c0: e0b9 d1bd a55a 04be b401 023e 5d1c d2bc
000001d0: 8ccf b3bd bfdc b8bc 064b dcbd a6d1 b53c
000001e0: 13f1 b0bc 301e e33d b688 4dbd 271e a3bd
000001f0: c1c1 0d3d 4b86 e53d 6fd9 ae3d bebc 28ba
00000200: 68fe 6c3d 7f53 a0bc e8af a63d dd43 34bd
00000210: 15db e13c 701d 09bd 0ba2 073d 8b17 b7bd
00000220: b571 653c 691a ec3d 396c 8dbd 4171 39bb
00000230: 5d9b 95bd b1ea 593d 8857 c8bd debc bd3d
00000240: cf50 2c3d a777 ecba 0553 bcbd f8aa 733b
00000250: 189b 82bd f13f 25bd 3651 9ebc 9b53 9e3d
00000260: e2ce f43d 27c8 f2bd 118a 77bb b405 d9bd
00000270: 9e15 423c 0c23 81bd 43b6 833c e05b 08be
00000280: a841 603d 87cd 8a3d 1614 d73d a6e9 b5bd
00000290: cd56 6e3d 37b6 7fbd 5711 083e 20f6 be3d
000002a0: 8279 6abd f849 f93d 3045 473d 7527 e13b
000002b0: 99e2 b83d 8198 823d 72a7 7ebc a184 8abd
000002c0: a009 85bd 471b 8f3b e688 2ebd cd66 af3d
000002d0: eff4 e83d 8dda 12bd 1593 c73d 521b e13d
000002e0: 5c14 393d 7cc3 5c3d 3791 953d fce4 413d
000002f0: 88c0 113d 7114 823b 551c 003e 7252 b63d
00000300: 144f da3c aa68 babd 33e8 cbbc 3f58 42bd
00000310: 9235 12be a2af e83d 660e b03d c5df 273d
00000320: 6b4e c8bc 7e25 9c3d 90aa d0bc 7444 95bd
00000330: 362a 6dbc acd3 a03d 1815 9dbd 4f1b 0dbc
00000340: 25fe bd3d 9568 ba3d 9187 973d 02d9 c23c
00000350: 8fdf 67bd fe83 17bb e5db 883d b13e 283e
00000360: 4157 abbc 0edb 953d 0ef3 de3d b973 2c3e
00000370: f04d a5bb 6027 62bd a8cb 2d3d 0a6c 09bd
00000380: 9adf 113d 6c8b 373d 9961 cdbb aa59 0c3e
00000390: ab87 a03d bcef 923d 5acb 2abc a42f 06bd
000003a0: b5db b13d fe2a 2ebd 4258 8dbc 6d40 d63d
000003b0: f4bc 683d 27ee 48bd 160c afbd 45a1 a53d
000003c0: 7434 a73d f7b5 0abd c0c7 fc3d 9f28 8d3c
000003d0: ae86 f53d c6c0 87bd 80ba 06ba 8153 f33b
000003e0: 09bc 8ebd 2789 973d fbf2 6ebd cdbf b63d
000003f0: 8423 01bd 8687 90bc ab25 99bd 75e1 56bd

lstm.bias_hh_l1 f4 [256]
0.00039049654 0.026007274 0.12800369 0.051555626 0.050506327 -0.05533743 0.12525874 -0.07718859
0.065827794 -0.07266831 0.03841562 -0.027738944 -0.0065312334 -0.12929353 0.13465275 0.009880808
0.039653018 0.08819652 0.08230333 0.080751315 0.11638017 0.0010086 0.09505314 -0.022380263
0.02709751 -0.07444936 0.07985183 0.035236683 0.11378715 0.04616759 -0.011156397 -0.0013339976
-0.09687466 -0.07495237 0.039078742 0.088406 0.106000796 0.018362874 0.13595049 0.078153946
0.119159885 -0.022183076 -0.07569674 0.03611518 -0.002757575 -0.115750715 0.13637716 -0.10010907
0.035743933 -0.11653193 0.0014505261 0.16438165 -0.05492186 0.01660108 -0.026259325 0.08316284
-0.07567963 0.028210979 0.13650447 -0.013071911 0.023610864 0.1293953 0.07469631 -0.09255266
-0.07172469 0.11545701 0.13859491 -0.010411952 -0.08740212 0.11267091 0.095647424 0.049565647
-0.019812968 0.01763339 0.04632411 -0.09508735 0.044898417 0.093308985 0.0094824 0.07648631
-0.04008547 0.12733406 -0.05753739 -0.0025650195 -0.051997982 -0.012839571 0.027349034 -0.06455332
-0.06811237 0.028075142 -0.014548863 0.024237668 0.041469295 -0.10971888 -0.07555616 0.12958433
0.0713254 -0.05283033 0.071628 -0.07542023 0.12898578 -0.09232667 -0.011222538 -0.011409004
-0.023876917 0.08589783 0.0106227035 -0.0018600886 0.11605308 0.021584174 0.08444951 -0.022143606
-0.039927196 0.08366888 -0.07170338 0.015617356 0.03437499 0.01776974 -0.052767146 -0.09478228
-0.10312335 -0.101976946 -0.037582412 -0.04561007 -0.005288077 -0.10000571 -0.08412472 -0.05350718
0.10023328 0.09917004 0.09432313 -0.10010215 -0.030621324 0.1392856 0.077279225 -0.10918992
-0.015894478 -0.07946923 -0.085434996 0.03364075 0.082374126 0.020008108 -0.121837825 -0.039645657
0.040959608 -0.008588563 0.015513537 0.010387344 0.0044198665 -0.07294585 -0.044527303 -0.07891295
0.047885712 -0.08511279 -0.09505724 0.086530626 0.0897785 -0.0068501267 -0.037173327 0.06055172
0.058208063 0.0031665014 0.06673395 -0.096180126 0.06541041 0.12772343 0.09311845 -0.021842247
-0.105213925 0.00893225 0.097034924 -0.054580275 0.13736112 0.078144245 0.09485239 -0.006340216
0.038320176 0.045770515 -0.022222979 -0.10593889 0.07836417 -0.039337385 0.10352772 -0.016771901
0.11793763 -0.03772088 0.01490875 0.017828235 -0.06731139 -0.043862905 0.123292565 0.08097243
-0.1361842 0.13596405 0.046324152 -0.00052774296 -0.071960926 -0.037646312 0.1315015 0.083156765
0.121690504 0.03798451 -0.01950641 -0.05786828 0.06117701 -0.031087978 -0.08085674 -0.06252356
0.088681005 -0.035551403 -0.041845202 -0.08072239 0.06885126 -0.0019319537 0.006493025 0.17658879
-0.042775217 0.01817827 0.12939711 -0.055132832 0.02844351 0.008964476 0.06714287 0.09131986
-0.026450621 -0.014020841 0.0023719375 0.103631176 -0.052521788 -0.03687841 -0.083539695 0.08484882
0.09648091 -0.044687524 -0.10547773 0.12359954 -0.0812328 0.067589425 0.048289366 -0.111917846
0.020343749 -0.021373075 -0.056262348 0.14573938 0.030811602 -0.0964825 0.054781187 0.07242226
0.12659164 0.06371591 0.013233591 -0.0858266 -0.0991268 0.14190102 -0.104821734 -0.0105877705
00000000: 8fbb cc39 350d d53c 6613 033e fe2b 533d
00000010: b9df 4e3d 80a9 62bd d443 003e 0d15 9ebd
00000020: b9d0 863d 1fd3 94bd b259 1d3d c83c e3bc
00000030: f503 d6bb 8665 04be 69e2 093e 1de3 213c
00000040: 346b 223d 61a0 b43d a68e a83d f260 a53d
00000050: ba58 ee3d 0033 843a 38ab c23d d056 b7bc
00000060: 99fb dd3c e878 98bd 5b89 a33d 5754 103d
00000070: 3d09 e93d 3a1a 3d3d 52c9 36bc 88d9 aeba
00000080: 3966 c6bd a180 99bd 0811 203d 340e b53d
00000090: f216 d93d bd6d 963c 9b36 0b3e 2d0f a03d
000000a0: 190a f43d 48b9 b5bc e406 9bbd 83ed 133d
000000b0: 6eb8 34bb b60e edbd 74a6 0b3e fc05 cdbd
000000c0: 3b68 123d 4ba8 eebd 941f be3a aa53 283e
000000d0: bff5 60bd fdfe 873c cc1d d7bc 4751 aa3d
000000e0: ecfd 9abd b61a e73c d4c7 0b3e 922b 56bc
000000f0: 926b c13c 3480 043e 61fa 983d 408c bdbd
00000100: 65e4 92bd ba74 ec3d d3eb 0d3e e496 2abc
00000110: e2ff b2bd 02c0 e63d cce2 c33d 5905 4b3d
00000120: ce4e a2bc e673 903c 5abe 3d3d 28bd c2bd
00000130: 67e7 373d c818 bf3d 115c 1b3c dba4 9c3d
00000140: a930 24bd dc63 023e 54ac 6bbd e319 28bb
00000150: d6fb 54bd 105d 52bc 150b e03c 8834 84bd
00000160: 807e 8bbd d7fd e53c 5b5e 6ebc 138e c63c
00000170: b5db 293d 4bb4 e0bd 30bd 9abd c1b1 043e
00000180: 0d13 923d 9e64 58bd b3b1 923d ec75 9abd
00000190: d914 043e c415 bdbd bcde 37bc d5ec 3abc
000001a0: 8699 c3bc 34eb af3d d90a 2e3c 37ce f3ba
000001b0: 3dad ed3d 4bd1 b03c ddf3 ac3d 8266 b5bc
000001c0: b38a 23bd 975a ab3d 39d9 92bd f0df 7f3c
000001d0: cacc 0c3d d991 913c 5d22 58bd 361d c2bd
000001e0: 5632 d3bd 4ad9 d0bd 04f0 19bd a0d1 3abd
000001f0: 9b47 adbb cbcf ccbd 9549 acbd 582a 5bbd
00000200: 1b47 cd3d a919 cb3d 7c2c c13d 5b02 cdbd
00000210: 92d9 fabc e2a0 0e3e 9244 9e3d f79e dfbd
00000220: 2335 82bc c3c0 a2bd 8bf8 aebd e2ca 093d
00000230: c4b3 a83d 0be8 a33c 1c86 f9bd 7c63 22bd
00000240: 43c5 273d 0bb7 0cbc 7e2c 7e3c ae2f 2a3c
00000250: 87d4 903b a264 95bd 4362 36bd 1d9d a1bd
00000260: cf23 443d 9d4f aebd 5fad c2bd f836 b13d
00000270: cadd b73d 0777 e0bb 0f43 18bd 1505 783d
00000280: 946b 6e3d 1485 4f3b cfab 883d 16fa c4bd
00000290: e5f5 853d eec9 023e e3b4 be3d 83ee b2bc
000002a0: 667a d7bd 9258 123c 3fba c63d 918f 5fbd
000002b0: 65a8 0c3e 170a a03d f841 c23d 96c1 cfbb
000002c0: 9ef5 1c3d dd79 3b3d f70c b6bc 7df6 d8bd
000002d0: 657d a03d 3d20 21bd 5706 d43d 3a65 89bc
000002e0: 4989 f13d 3681 1abd d443 743c 850c 923c
000002f0: 8eda 89bd 97a9 33bd d080 fc3d e0d4 a53d
00000300: df73 0bbe 293a 0b3e 65be 3d3d 3b58 0aba
00000310: 4060 93bd 0533 1abd 54a8 063e 184e aa3d
00000320: df38 f93d a595 1b3d e8cb 9fbc 4a07 6dbd
00000330: bf94 7a3d 37ac febc 3898 a5bd 5a0c 80bd
00000340: 639e b53d 599e 11bd e065 2bbd c851 a5bd
00000350: e401 8d3d 9c39 fdba 71c3 d43b b1d3 343e
00000360: 1135 2fbd 98ea 943c ad80 043e f7d2 61bd
00000370: 5d02 e93c bddf 123c 3382 893d e805 bb3d
00000380: f9ae d8bc abb7 65bc 8272 1b3b 953c d43d
00000390: 1621 57bd d10d 17bd dc16 abbd 38c5 ad3d
000003a0: c997 c53d 440a 37bd b504 d8bd c121 fd3d
000003b0: 625d a6bd 536c 8a3d 12cb 453d 2f35 e5bd
000003c0: efa7 a63c 9616 afbc 5973 66bd b43c 153e
000003d0: 9d68 fc3c 9e98 c5bd 3d62 603d 1f52 943d
000003e0: 3da1 013e 7d7d 823d b4d1 583c dbc5 afbd
000003f0: fe02 cbbd 804e 113e c7ac d6bd 5478 2dbc
